digit_model.onnx (onnx, 903187 bytes, 8 tensors)

sequential_1/dense_1_2/Cast/ReadVariableOp:0 f4 [128, 10]
00000000: f8d9 3abd 7341 24be 89ae 05be 82f2 b73d
00000010: d501 51be 9ce9 fa3d a983 30be 6a0b 4abe
00000020: e7f6 253d b60e 40be 1a46 483e 75f6 3c3e
00000030: 7b4b 4cbd 28ac 2fbe 60d3 1d3e 8a2a c1be
00000040: ece4 4fbd 15d0 3e3d bdc2 8bbb 10f9 adbd
00000050: 016c 89be 1de7 85bd 549a 793d 6d8e 1abe
00000060: e25e dfbe f06a a8be e9a1 5bbe a5b5 633d
00000070: 5e9b 703d 4034 313d 8f5a fa3d c1f2 2fbe
00000080: 0703 f33c cc41 02be 9051 1bbe fe6e 77bd
00000090: 53be 873d 5bcd a23d 98fd 82bd d8ec 303e
000000a0: d0ba 8bbe 213a 15bf 5f6e d4bd fdf7 55be
000000b0: ea70 c2be 2967 c6bc 8b3c 06bf 0552 e23c
000000c0: 2d41 ecbe 3f6a cebd 8798 cfbd e7fb 04bf
000000d0: 7ae9 ff3d a802 2f3d a458 5a3d 57c2 e53d
000000e0: 1901 62bd dc16 9d3d 72a2 56bd 6776 38be
000000f0: d219 0fbf 6502 18bd e6cc b43d dcc8 67bd
00000100: a83a 14be 3e40 8cbe 43a4 57be 72f9 92be
00000110: 0bc0 dfbe 406e d7be 26ee 13be 08a4 c33c
00000120: 6995 863c 53e5 45bd 807d 67be 17c5 65be
00000130: 5cc9 a73d e2d5 9d3d e83a bcbd 9771 87be
00000140: b7c9 b3be 46ef d9bb 5bb4 83be c15b 2fbe
00000150: dd7f 3b3e 0250 8b3d 503b f8bd c262 cdbd
00000160: 67ba dbba e136 3f3c fa12 9d3e 6f30 fd3d
00000170: c849 5c3a 9e01 adbd f6df ccbc a9bb 8cbd
00000180: 1509 ff3d 4ef5 82be 6650 b6be b6be 4b3e
00000190: 84fe 4dbe 1951 1fbe 1757 39be 702b 42be
000001a0: eab6 dcbd e006 fc3c 0dcc 5d3b c890 bc3d
000001b0: 3b27 cb3d c82f df3b 728c 38bd a162 f03c
000001c0: 73b1 b2bd 1804 acbe cc1f dcbd 39a4 8abc
000001d0: 7d65 71bb e490 88bd 56d4 bdbd 81a1 86bd
000001e0: af8a a6be ed31 743d 2a97 f8bc c8cb 01be
000001f0: 00cd 86bd 9e1d fcbd 6e47 10be 9474 283e
00000200: df2a a4bc d9a8 05be bfff 1a3e ee5d bcbd
00000210: bfe0 33be 42dc d2bc 68a0 acbc 6bb9 e3bd
00000220: f532 ca3c 2e83 35be 44de 013d c7e6 68be
00000230: 6535 0abe 88e3 cd3d f019 5dbe 2d7c 50be
00000240: 8f38 7b3e 22ab 9abe 7988 813d 5e10 a53c
00000250: 883b 3fbe 775c 003e 9be9 c9bd 5a07 ebbd
00000260: 023b 30bd 16db 70bc 4896 9abe 6b88 08be
00000270: 6a04 e3bc 878b 523a 3afb 0a3e 9c65 7f3d
00000280: febd 5e3e bb4c 93bd b813 883d a6f3 debc
00000290: 87ab a8be 454f c3bd d529 91be 9f45 c93c
000002a0: 9de0 51bc 3e47 c63c 49ae 903c c232 6b3d
000002b0: 3b4a 96be 0319 8dbe bfd0 f13d 9c8a a8be
000002c0: 86c3 0d3e d262 7bbe 26ee 023d 1393 f23d
000002d0: f127 183e d166 d83d 0c2d cebe 58c7 80be
000002e0: 5875 953d 4ff3 c1be 0e63 65be a9ca d1be
000002f0: a47f a1be 612b 5dbe 55a0 6c3e 058c 74bc
00000300: f158 6e3d 8323 563c 8179 c0bd 8ad6 723d
00000310: 89f6 3dbe 156c 2abe c8f7 7ebc a900 6ebe
00000320: 17a3 1b3e f03b 033e 1b46 973e 1e4c 2dbd
00000330: 2608 83be 40d4 01bc b63e 44be 86e5 363e
00000340: 99d7 14be f70b 9cbd 2b82 cc3c 3344 3dbc
00000350: 190b 8abe 2b9a 40be 75de b93d f355 88be
00000360: 4ff6 b1bd 5180 d1bd 81cd 90be 808c 8ebc
00000370: 1b89 e13d eb7d 81bc 0c74 d9bd 63e7 023d
00000380: 35d6 3c3e 6797 16be ff35 903d ccf8 f0bd
00000390: ed80 2d3e cf9c b73d 6361 a4be 8e8f c3bd
000003a0: 3a6c ab3c 74a3 d23d 3176 8ebd 4526 02be
000003b0: 48a6 0fbd fa2f 8bbe ffa1 48be 4932 34be
000003c0: 0310 a0be 5a71 14be b189 04be 66b8 a1be
000003d0: 55ef a6bd 6cf5 e83a ed15 dcbd 53cb 253c
000003e0: dd8b 9bbc 7e85 713d caf4 cdbe 0d0f 823e
000003f0: 2ad1 8bbe 7de7 fabe 735f 78be c1cf 86be
-0.045618027 -0.16040592 -0.13054861 0.089818016 -0.20410855 0.12251589 -0.17237724 -0.19730917
0.040518668 -0.18755612 0.19557992 0.18453391 -0.04987667 -0.17155516 0.15412664 -0.37727767
-0.050755426 0.04658516 -0.004265158 -0.084947705 -0.26840213 -0.06538222 0.060938194 -0.15093394
-0.43627077 -0.32894087 -0.21448483 0.05559315 0.05874192 0.04326272 0.12224304 -0.17182447
0.02966453 -0.12720412 -0.15167832 -0.060408585 0.06628098 0.07949325 -0.063960254 0.17277849
-0.27290964 -0.5829182 -0.10372614 -0.20895381 -0.37976772 -0.024219112 -0.5243613 0.027627
-0.46143475 -0.100788586 -0.10136514 -0.5194687 0.12495704 0.042727143 0.05330719 0.11218708
-0.055176828 0.07670376 -0.052401014 -0.18013917 -0.55898774 -0.03711166 0.08828144 -0.05658804
-0.144755 -0.27392763 -0.21058755 -0.28705937 -0.43701205 -0.42076302 -0.14446315 0.023881927
0.016428666 -0.048314404 -0.22606468 -0.22438465 0.08192703 0.077068105 -0.09190923 -0.2645385
-0.35114834 -0.006650838 -0.25723538 -0.17124845 0.18310495 0.0680237 -0.12120688 -0.10028602
-0.0016763926 0.011670799 0.3067854 0.123627536 0.0008403328 -0.08447574 -0.025009137 -0.06871731
0.12452904 -0.25577778 -0.35608214 0.19896969 -0.20116621 -0.1555828 -0.18099628 -0.18961883
-0.107770756 0.030764997 0.0033843548 0.09207302 0.09919592 0.006811116 -0.045055814 0.029343905
-0.08725252 -0.33596873 -0.10748252 -0.01692401 -0.0036834173 -0.06668261 -0.092690155 -0.06573773
-0.32527682 0.059617925 -0.030345518 -0.12675393 -0.065820694 -0.123103365 -0.14089748 0.16450721
-0.020039974 -0.13052692 0.15136622 -0.09197603 -0.17566203 -0.025739793 -0.021072581 -0.1111935
0.024682501 -0.17725822 0.03170611 -0.22744285 -0.13496931 0.10053164 -0.21591926 -0.2035987
0.24533294 -0.3020869 0.06324858 0.020149406 -0.18675053 0.12535273 -0.0985901 -0.114760116
-0.043025024 -0.014700672 -0.3019278 -0.1333329 -0.027712066 0.00080316555 0.13572398 0.06235276
0.21752164 -0.071923696 0.06644386 -0.02721579 -0.32943365 -0.09536604 -0.28352228 0.02456933
-0.0128099 0.024203893 0.01766123 0.057421453 -0.29353508 -0.27558145 0.11807393 -0.3291825
0.13844118 -0.24549416 0.031965397 0.118444584 0.14858986 0.10566486 -0.40268743 -0.25152087
0.07297772 -0.37880942 -0.22401068 -0.4097493 -0.31542695 -0.21598579 0.23108037 -0.014925961
0.05819029 0.01306999 -0.09398175 0.05928663 -0.18551077 -0.16642793 -0.015562005 -0.2324244
0.15198933 0.12815833 0.29545674 -0.04230892 -0.25592154 -0.0079241395 -0.19164547 0.17860994
-0.14535369 -0.076194696 0.024964413 -0.0115519045 -0.26961592 -0.1880881 0.090756334 -0.26628074
-0.08689558 -0.102295525 -0.28281787 -0.01740098 0.11012479 -0.015807113 -0.10617837 0.03195895
0.18441088 -0.14706193 0.07041549 -0.11766204 0.16943713 0.08965456 -0.3210555 -0.09548865
0.02092563 0.102850825 -0.06956137 -0.12709911 -0.035070688 -0.2718504 -0.19593047 -0.17597307
-0.31262216 -0.14496365 -0.1294315 -0.31585997 -0.08151118 0.0017773337 -0.107463695 0.010119277
-0.01898759 0.0589652 -0.40225822 0.25402108 -0.27308017 -0.49004737 -0.24255161 -0.2633038

sequential_1/dense_1_2/BiasAdd/ReadVariableOp:0 f4 [10]
00000000: bfaa 5c3b b091 be3d e574 edbb 79ef a83c
00000010: d576 3bbd cc33 99bd a703 b0bc db63 563d
00000020: ffc9 56bd ac01 593c
0.0033671109 0.093051314 -0.007246601 0.020622002 -0.045767624 -0.074805826 -0.021486117 0.052341323
-0.052438732 0.0132450275

sequential_1/dense_1/Cast/ReadVariableOp:0 f4 [1600, 128]
00000000: 0198 0c3d 1628 b93c 060a d93d 681a e93b
00000010: e34e d1ba 1540 cb3c 4caa 2ebd cc7a 993d
00000020: 486c a0bc 7941 11bd 535f 11bd fe1b 3c3c
00000030: 0436 8ebd 268d 613b d26d 1e3d 3a18 b23c
00000040: 0de7 973c 58a2 603c 7bb3 313d 34be b13c
00000050: f78f 1c3b aa6a febc 6865 9e3c 4ae8 aa3c
00000060: e683 f53c 59f9 ca3c 65fb 98bb 0b39 fa3b
00000070: 1cfb 68bd 512a 41bc c707 1c3d 4a4d f63c
00000080: 523e 54bd 6669 493d 1cd4 0c3d cf34 6cbd
00000090: ac09 7c3c 99d7 0a3d ec45 143d 03ab f0bb
000000a0: 6652 033d 8a82 c9bd 6e27 ccbc f7eb 473d
000000b0: 3c8d 1d3d 7ac0 783d 72b7 d23c 3b85 233d
000000c0: a5b2 2e3c 4c7a a43d e139 e03c a761 103b
000000d0: b76d 1bbd b974 de3c 04e6 a33a 03df bebc
000000e0: bfc9 2f3c 65df 943b 835f ce3c e823 1d3d
000000f0: 52c0 19bd 8b13 9dbc 7619 d73d 8c0b 70bd
00000100: faa9 c13c 1611 ffbc d15d 4bbd f3d0 33bd
00000110: ceb7 de3d b014 76bc 98bb fb3c dd67 a03d
00000120: b2ee 4fbd a986 58bd bf1f 413d f83b bf3d
00000130: aa49 913d f2ec 0a3d 18fb ae3c b2f2 a9bc
00000140: 6103 89bd 8c82 783d 8073 053e 70f4 b63b
00000150: 9865 ad3b 28af 4d3d 0110 5cbc a7f0 c7bc
00000160: d13a 87bb d90c 7e3c de61 cf3c 4207 19be
00000170: f8f0 303d f58e 5e3d 7691 70bd f4c7 10bd
00000180: 49c6 ac3c 562c 923c 13ca 1fbd 24bf a0bb
00000190: a6b0 1b3d 61fd 253d b47a 8dbc 29cb 053c
000001a0: bce3 89bd 00d3 f93c 9980 30bc b5f1 65bc
000001b0: c370 d1bc 2f68 babc 0470 973c 2874 eb3d
000001c0: 5076 45bd d1f5 08be 175b 8d3d b9ba b7bd
000001d0: 07a3 03bc ca15 a53d a984 0e3d e558 e53c
000001e0: ccb9 71bd 7c62 06bd 7741 58bd 78ef cfbb
000001f0: 30c1 ee3c 3ed6 53bd 10ab 743c a3b3 c9bc
00000200: 603b 65bc 0e82 9abc 98a9 21bc 29ca 3c3d
00000210: d869 3bbd a5d5 573d 598b 603d 72b8 bc3c
00000220: 68ab 9e3b 5f66 bebc 5bff 503d 178f 80bd
00000230: 6e8d 633c d0f5 69bb 0a62 c43c 6f8f 363c
00000240: bc66 063d 9a92 863c e793 663d 4fd0 0cbd
00000250: aa70 b43c 7ef6 d63c b875 883c e4bd 133c
00000260: cec6 9f3c ede6 6bbd 7dd8 293d 3375 5e3d
00000270: 1629 123d 4fe2 663d 8cf6 4a3c 6339 36bd
00000280: c7d6 0e3d 85c9 243d 4114 2e3c faf9 fe3c
00000290: 30ff c5bb 24dd 26bc 6c61 28bd 7c86 afbc
000002a0: 729c d93c 74a9 18bd 656a 54bd c6e4 dc3c
000002b0: cdfd 093d 9b06 163d 0ce8 4f3c ff07 353d
000002c0: bfd3 48bd c06f f9bc 86c1 e13c 8f32 35bd
000002d0: 4c06 0c3c d9b2 163d 9135 2a3d da32 8cbc
000002e0: 125f ddbc 8e63 d13c 24bd 3cbc 9ece 95bc
000002f0: 7833 b63b c726 213d 1637 4abc 4be9 233d
00000300: 5031 5abd c189 83bc 7d90 123d 6a09 4fbd
00000310: 5ae2 643c e850 fc3b 4b8f 2f3d a6ba 14bd
00000320: 8ff6 263d 4141 6dbd 98a3 62b9 ff4e ac3c
00000330: 7ecf bf3c 55f7 dd3b 7659 68bd c4b5 64bd
00000340: ba23 933c 7b0b 6ebd abb2 4d3d daaf 3a3d
00000350: 1ff5 383d b6f8 9d3c 0d9a e03b c07a 6aba
00000360: dd73 6d3d fc29 8abc 820b e7bc ea8d e13b
00000370: 2e4b 01bd e067 65bc 1a62 cbbc cb8d 1c3d
00000380: b0a3 4b3b d715 0a3d 9483 57bd 2060 1dbb
00000390: d85e 0dbc a643 c73c 7762 053d a294 b3bc
000003a0: c491 74bc ba3c d3bc 101b 50bd 86ff bebc
000003b0: a258 65bc 8ae5 d4ba a039 1ebd 882b ef3b
000003c0: 4c6c 42bc b4ad 1e3c a65e 0f3d c43d 39bc
000003d0: 326e e1bc b0a7 6f3b b0e7 4bbc a96c 663d
000003e0: 005c 0bbd ab73 b33c d91a 623d 6fca 383d
000003f0: 2841 07bd 0e84 a9bc 9da8 8d3b fe87 b03c
0.03432465 0.022602122 0.10597615 0.0071137436 -0.0015968945 0.02481083 -0.042642877 0.07494125
-0.019582883 -0.03546283 -0.0354913 0.011481283 -0.069438964 0.0034416406 0.03867895 0.021740068
0.01854279 0.013710581 0.043384057 0.021697141 0.002388952 -0.03105672 0.019335464 0.020862717
0.02997012 0.024777101 -0.0046686404 0.0076361946 -0.0568801 -0.011789874 0.038093355 0.030066151
-0.051817246 0.04917278 0.03438197 -0.05766755 0.015383165 0.033897016 0.036199495 -0.007344605
0.032061003 -0.098393515 -0.024921145 0.048809018 0.03846477 0.060730435 0.02572224 0.03992198
0.010662709 0.08031139 0.027371349 0.0022030862 -0.03794643 0.027155267 0.0012504463 -0.0232997
0.010729252 0.0045432323 0.025192028 0.03836432 -0.037536927 -0.019174358 0.10502903 -0.058604762
0.023640621 -0.031136077 -0.049650017 -0.04390044 0.10874902 -0.015019581 0.0307291 0.0783231
-0.050764747 -0.052862797 0.047149416 0.0933761 0.070941284 0.033917375 0.021359965 -0.020745609
-0.066900976 0.060671374 0.13032341 0.0055833384 0.005291652 0.05021587 -0.01343155 -0.024406744
-0.0041268845 0.015505993 0.025315221 -0.14944175 0.043198556 0.054335553 -0.058732472 -0.03534694
0.021090643 0.017843407 -0.039011072 -0.0049055982 0.038010262 0.040524844 -0.017270423 0.008166113
-0.0673289 0.03049612 -0.010772848 -0.014034678 -0.025566464 -0.022754757 0.01848603 0.114967644
-0.048208535 -0.13375022 0.0690214 -0.089711614 -0.008034474 0.080607966 0.034794483 0.02799649
-0.05901508 -0.032808766 -0.052796807 -0.0063456856 0.029144853 -0.05171799 0.014933363 -0.02462179
-0.013991207 -0.018860843 -0.009867094 0.046091232 -0.045755237 0.05269398 0.054820392 0.02303717
0.0048422106 -0.023242174 0.051024776 -0.06277292 0.0138887 -0.0035699494 0.02397253 0.011142596
0.03281282 0.016427327 0.056293394 -0.034378346 0.022026379 0.026240584 0.016657695 0.009017441
0.019503977 -0.057593275 0.041466225 0.05431099 0.035683714 0.05636817 0.012387883 -0.044488322
0.034872796 0.040231247 0.010624946 0.031125057 -0.0060423836 -0.01018456 -0.041108534 -0.021426432
0.026563857 -0.037270978 -0.05185928 0.026964556 0.03368931 0.036627393 0.012689602 0.04419708
-0.04903006 -0.030448794 0.0275581 -0.04423767 0.008546423 0.036791656 0.04155499 -0.017114092
-0.027022872 0.025560167 -0.011519704 -0.018287 0.005560335 0.03934362 -0.012342235 0.040017407
-0.053269684 -0.016056897 0.035782326 -0.050546087 0.013969982 0.0077000745 0.042861264 -0.036310814
0.04076248 -0.05792356 -0.00021613983 0.021033762 0.02341437 0.006773869 -0.05672594 -0.055837408
0.017961372 -0.058116417 0.05021922 0.04557786 0.04515564 0.019283634 0.006854302 -0.0008944683
0.057971824 -0.016865723 -0.02820373 0.0068833726 -0.031565838 -0.0140018165 -0.024827052 0.03822116
0.0031072907 0.033712234 -0.052615717 -0.0024013594 -0.00862857 0.02432425 0.032564607 -0.02192146
-0.014927331 -0.025785793 -0.05080706 -0.023315202 -0.0139981825 -0.0016242724 -0.038629174 0.0072988905
-0.01186664 0.009684969 0.035002373 -0.01130623 -0.027518366 0.0036568455 -0.012445375 0.05625597
-0.034023285 0.02190574 0.055201385 0.04511493 -0.033021122 -0.020692851 0.004323079 0.021549221

sequential_1/dense_1/BiasAdd/ReadVariableOp:0 f4 [128]
00000000: 47e3 2bbd 0006 babc e1dd 9abd d62a 46bd
00000010: c320 96bd 3083 25be 4a64 a2bc e1d6 81bc
00000020: 662c 5c3d 094d 9fbd 8d01 14bd 3d26 8dbd
00000030: 5c11 4fbb 52a6 98bd 9e2b 73bd b903 5dbd
00000040: f711 10be ce5b a1bb a8e1 6abd 6ebe 04be
00000050: b793 0abe 0afc 4bbb 023d 96bd f9c8 8ebd
00000060: be7b 5fbd 40c1 8fbd df8f 1abd d749 82bd
00000070: 9095 15bc 92c6 e8bb fead 34bc 9b57 1cbd
00000080: 2f8a 3fbd 0d4b 0fbb c088 50bd a02e e5bc
00000090: 7828 90bd 31dc 83bd 6b56 68bc 686b c4bd
000000a0: cd3b 49bd 7327 83bd 8e9f 55bd e8e1 5ebd
000000b0: 92d8 2dbd 00c6 00be f0e7 31bd 4e57 37bd
000000c0: 829c f5bd 9516 0cbd 02d3 c1bc aead f7bd
000000d0: 8a0f 95bd 5ab3 9cbd ee47 0abd da42 f6bc
000000e0: 571b a3bd e126 08bd efdd e9bd d996 e0bc
000000f0: 5927 51bd 7576 8ebc 664d 1cbe 0f5f 1dbd
00000100: dd88 c7bc a334 d0bd 12d1 ccbd 4709 0ebc
00000110: cbcd 05be 2981 24bd e167 92bd a2c5 39be
00000120: 0735 50bc 2c59 e6bd c226 23be d26e 2bbe
00000130: affb 8abc f1e2 15be cf79 c4bd d7ac bebb
00000140: 25bb 06bd 79d8 5cbd 805e 33be 4833 e2bb
00000150: 3d0b 4ebd d444 cebc d08f a8bc 91ef 8ebb
00000160: 8013 b0bb 1ae9 51bd fe51 95bc 4754 e93c
00000170: 11e8 74bc 3603 c7bd 7333 86bd c733 f2bc
00000180: cb4d 9bbd c4cd 02bd 8550 ebbc bdd1 b2bc
00000190: 6883 26bc e10c fabd 1f06 7bba 342e 37bc
000001a0: 5fa6 51be ca5a 8dbd f84e 95bd 44e9 84bd
000001b0: 27e1 2dbd dded d5bd ca64 16bd 9559 e1bd
000001c0: 23c9 bdbd 97e3 6fbc 9376 25bd 7867 e0bc
000001d0: 2d90 18be a28d 61bd 77d4 d8bd 3852 26bd
000001e0: c053 b9bd 4ef9 26bd 4dbc 17bd 8a6f 04bc
000001f0: 8be0 8dbd cfdb a9bc 6abf 5bbd f259 e6bd
-0.041964795 -0.02270794 -0.07561851 -0.048380695 -0.073304676 -0.16163325 -0.019823212 -0.015849533
0.05375328 -0.07778365 -0.03613429 -0.06892059 -0.003159604 -0.07453598 -0.05936777 -0.05395863
-0.14069353 -0.004924274 -0.05734411 -0.12963268 -0.13532911 -0.0031125569 -0.07335855 -0.06971926
-0.05456137 -0.070192814 -0.037734862 -0.0636174 -0.009129897 -0.0071037496 -0.011027811 -0.038169485
-0.04676264 -0.0021864802 -0.050911665 -0.027976334 -0.07038969 -0.064384826 -0.01418076 -0.095907986
-0.049129296 -0.06404009 -0.052154116 -0.05441466 -0.042442866 -0.12575531 -0.043434083 -0.044760995
-0.11992742 -0.034201223 -0.023660187 -0.12093674 -0.072783545 -0.07651396 -0.033760004 -0.030061174
-0.07964199 -0.033240203 -0.114192836 -0.02741568 -0.051062915 -0.01739047 -0.152639 -0.038420733
-0.024357254 -0.1016629 -0.100008145 -0.008669204 -0.13066785 -0.04016224 -0.071487196 -0.18141797
-0.012707955 -0.11247477 -0.15932754 -0.16741493 -0.016965715 -0.14637353 -0.09593546 -0.005818944
-0.03289332 -0.053917382 -0.17516518 -0.006903086 -0.050303686 -0.025179304 -0.020576388 -0.0043620546
-0.0053734183 -0.051247694 -0.018227573 0.02848257 -0.014947907 -0.09717409 -0.06552782 -0.029565705
-0.07583197 -0.031934515 -0.028724918 -0.021828527 -0.010163166 -0.12209488 -0.0009575802 -0.011180449
-0.20473622 -0.06902082 -0.07290453 -0.064898044 -0.04245105 -0.104457594 -0.036717214 -0.110034145
-0.092668794 -0.014641664 -0.040396284 -0.027393088 -0.14898749 -0.055066712 -0.105873995 -0.040605754
-0.09049177 -0.0407651 -0.037044812 -0.008083234 -0.06927594 -0.020734696 -0.053649344 -0.112476245

sequential_1/conv2d_1_2/convolution/ReadVariableOp:0 f4 [64, 32, 3, 3]
00000000: e8dc 6dbd ce52 93bc 0ec5 e93b 5b2c 86bc
00000010: 7731 4bbd de1e 2ebd d479 91bd fff2 debd
00000020: e1e1 c03c 7a46 8dbd c273 87bd dbc9 fe3c
00000030: 136e b5bc eea0 aabd 1622 283d d19b 2c3d
00000040: abb1 a93a 7ff4 383a 841f 143d ce4b 8ebd
00000050: 5707 d53d 0b78 57bd 5453 853d 26dc ee3c
00000060: ba91 89bc 2764 12bc 0c2c c53c 4aa8 cabc
00000070: c397 993b f17a 82bd 5d5b bfbd 1369 133d
00000080: c152 a23c 1d58 98bd 0668 42bd f8ee 4abd
00000090: 5d0a 29bd bd2f b9bd ac8e 4b3d cbcc 373d
000000a0: 4eb9 58bd fd65 bd3d 6232 8939 b1a2 81bd
000000b0: 382c 9f3c d64f c33b 4200 35bd 2488 2ebd
000000c0: 96fb 04bc f935 f3bc dac3 00bb 65e5 5f3b
000000d0: 0766 28bd 1b0c 96bc 9654 a43d d506 c03c
000000e0: a9ca 01ba a3dd c7bc c42d 33bd 8864 64bd
000000f0: 5f0c 9e3b d0a3 dfbd a99c 08bc 790b c1bd
00000100: b657 bb3c 6746 d9bc 00ea 1bbd c5bd 653c
00000110: c2a1 61bd 501c 26be 3566 9bbc 0b9b 64bd
00000120: 5c07 14be 808c a4bd c9ba 06bc 30cd 97bd
00000130: c0ac 363b 1688 ebbc a4d2 53bd 3c27 5dbd
00000140: a2c1 3f3d 9c1e 543d 5b45 083d db54 cf3d
00000150: f9c6 033d 8810 cfbc c67d 38bc 1706 debd
00000160: c0d1 0b3d 27cf 393d 2018 0ebd 450f 573d
00000170: 9a7b 263d 00e2 773c 984f 95bc b0ac 5039
00000180: f13c 56bd b715 39bd acf1 5fbd 3487 a1bd
00000190: 9bab e1bd d234 c03c 8d4d a0bd 84ed 83bc
000001a0: 2e18 36bd 72aa 393d 6071 8dbc c922 a63c
000001b0: 7bf3 ecbd 3a37 79bd 0441 af3c 7317 013c
000001c0: 9259 8cbb 93b7 a4bd e6e5 853d 1623 6abc
000001d0: ba18 5ebb bda6 c13b 7a90 26bd 06c6 15bd
000001e0: 5d35 0abd 73f5 cabd 356c 41bd 138c 7a3a
000001f0: d4f0 ca3c 55a2 87bd 60d3 d3bd 89b0 193d
00000200: c6be 883b a577 b1bd 1ade 5f3d 1687 3ebd
00000210: 4bb8 0abd 875a e53c 84ee a6bd 5dcc b7bd
00000220: da68 2dbd ad77 ec3c 722b 463d 15c1 babd
00000230: bc68 a73c 79d2 f73b b837 1d3d cfba 89bd
00000240: 8f2a ac3d fe41 35ba 5759 d43c 00a1 79bd
00000250: c0fa 6cbd 8eb3 da3c 472f 2cbd 0ccd 3fbd
00000260: d12a b4bd ae46 5fbc 69d2 2e3d c119 bb3d
00000270: e76f 8cbd 1379 553c 58e7 443d 9074 8bbc
00000280: 618c dabd 5f06 89bc 10e5 c1bd f6a6 0abe
00000290: c523 283c be2f a6bd d6a9 cdbc daef 66bd
000002a0: fe91 cbbd 3ec9 aebd 2727 2d3d d2cf d6bc
000002b0: 27b0 6dbb 322f 2bbd 5dcc 6a3b 2e03 433d
000002c0: dd5f ba3d 3d83 8abd 39e2 14bd 4421 f83c
000002d0: 721d 85bd c7d2 c5bd 24e4 46bd 2faf 1dbd
000002e0: de38 b3bc 2e60 43bc 1ad4 323c 3126 5d3d
000002f0: 3bd4 8fbc 5380 dabd cf5f ccbd 5af0 94bd
00000300: 6925 573d 3448 a5bc 6aac 21bd 93f1 2dbc
00000310: a492 1a3b 2020 00bd fbd9 b4bd ea92 ccbd
00000320: 0ef5 c4bd c055 d33c 801f 11bd b6ea 873d
00000330: ba2d f6bc 233b 833d 9bc1 ecbc 1cae 0c3d
00000340: 9270 c4bb b645 8c3d e736 ec3b 3706 ddbc
00000350: ccf8 9c3c bc73 b5bd 9275 a2bd 36b2 88bd
00000360: e66c d13b f424 2ebd e025 83bd 680d c1bc
00000370: 0105 053d 71d2 3c3d 4a6e 043d bc84 95bd
00000380: 2d5c adbd 9896 8abd db12 7cbd 2492 7dbd
00000390: b3ac c4bd 24eb b1bd 758b 103c acde 5f3a
000003a0: 41ae 63bd 9dc1 c3bc 0bca 223d c008 a03a
000003b0: 9a7d 7d3d 7cda 173d 2b98 41bd 20d1 57bc
000003c0: b495 b139 3716 4d3d aa40 dcbd 215f c0bd
000003d0: 5c80 953c 339a d43c 4d37 dcbc 076b 8d3d
000003e0: b74b 543d 2244 1ebd fc40 52bd d0e2 53bc
000003f0: 0e26 3ebd 3301 c23c 9644 a3bd 0c1a b53c
-0.058072 -0.01798382 0.0071340865 -0.016378572 -0.04960772 -0.042509906 -0.07103315 -0.108861916
0.023545207 -0.06898208 -0.06613876 0.031102112 -0.022147214 -0.08331476 0.041048132 0.042140786
0.0012946626 0.0007055476 0.03616287 -0.06948052 0.104017906 -0.052604716 0.06510034 0.02915771
-0.01679312 -0.008935011 0.024068855 -0.02473845 0.004687281 -0.063711055 -0.09343598 0.03598888
0.01981485 -0.07438681 -0.047462486 -0.049544305 -0.04126965 -0.090423085 0.04969661 0.04487304
-0.052911095 0.09247968 0.00026168214 -0.06329859 0.019430265 0.005960445 -0.0441897 -0.042610303
-0.008116623 -0.029688822 -0.0019647987 0.003416383 -0.041112926 -0.01831632 0.08023946 0.023440758
-0.0004951158 -0.024397677 -0.043744817 -0.055759937 0.004823252 -0.10919917 -0.008338132 -0.09426016
0.022868972 -0.026522828 -0.038064957 0.014022295 -0.055085905 -0.16221738 -0.018969635 -0.055811923
-0.14455932 -0.08034611 -0.008223244 -0.07412183 0.0027873963 -0.028751414 -0.051714554 -0.053992495
0.046815522 0.051787004 0.033269268 0.10123607 0.032172177 -0.025276437 -0.0112604555 -0.10841005
0.03413558 0.04536357 -0.034690976 0.052504797 0.04064522 0.015129566 -0.01822643 0.00019900757
-0.052304212 -0.045186725 -0.054673836 -0.07887116 -0.11019059 0.023462687 -0.07827292 -0.016104467
-0.044456653 0.045328565 -0.017265975 0.020280259 -0.11569878 -0.060843684 0.021393307 0.007879126
-0.0042831386 -0.080428265 0.0653799 -0.014290592 -0.003388925 0.0059097693 -0.040665127 -0.036565803
-0.033742297 -0.09910097 -0.047222335 0.0009557616 0.024773039 -0.06622759 -0.10343051 0.037521873
0.0041731326 -0.086653985 0.054655172 -0.046515547 -0.03386716 0.027997268 -0.08150962 -0.08974526
-0.042336322 0.02886566 0.048381276 -0.09118859 0.020435683 0.007562932 0.038383216 -0.06725084
0.08406555 -0.00069144357 0.025921507 -0.060944557 -0.05785632 0.026696946 -0.042037275 -0.046826407
-0.08797229 -0.013627691 0.04268113 0.091357715 -0.06857281 0.013029355 0.04807219 -0.017023355
-0.106713064 -0.01672667 -0.09467518 -0.13540253 0.010262434 -0.08114575 -0.025105398 -0.056381084
-0.09939955 -0.08534478 0.042273667 -0.026222143 -0.0036268325 -0.041793056 0.0035827376 0.047610454
0.09100316 -0.06763313 -0.036348555 0.0302893 -0.06499757 -0.09659343 -0.048557416 -0.038497146
-0.021877702 -0.0119247865 0.010914827 0.0539915 -0.017557254 -0.10669007 -0.099792115 -0.07272406
0.05252591 -0.02017603 -0.039471067 -0.010616678 0.002358594 -0.031280637 -0.08830639 -0.09988959
-0.09617053 0.025797725 -0.03543043 0.066365644 -0.030051101 0.06407764 -0.028900912 0.03434573
-0.0059948647 0.06849234 0.0072086933 -0.026980503 0.019161604 -0.08859965 -0.07932581 -0.06674616
0.0063911555 -0.04251571 -0.064037085 -0.023565963 0.032475475 0.04609913 0.032331742 -0.07300708
-0.08464847 -0.06767005 -0.06154142 -0.06190695 -0.09603252 -0.08687428 0.008822312 0.00085399556
-0.055586103 -0.023896033 0.039743464 0.0012209639 0.06188736 0.037073597 -0.04726426 -0.013172418
0.00033871608 0.050070014 -0.10754521 -0.093931444 0.018249683 0.025952434 -0.026881838 0.069051795
0.05183002 -0.038639195 -0.051331505 -0.012932494 -0.04642301 0.023682212 -0.07972066 0.022107147

sequential_1/conv2d_1_2/Squeeze:0 f4 [64]
00000000: 7b01 55bd 92f0 51bd 5b35 afbd b9f5 39bd
00000010: 407b dbbd 0f68 9dbd 6b05 20bd 6eb2 acbd
00000020: d460 c2bc 2ff3 f1bc cc7a 92bc 51fa d5bc
00000030: 241a 80bd f58c 31bd 9c47 3abd 6a6b 5cbc
00000040: 652e a3bd 854e 4bbd 4674 76bd 093c 31bd
00000050: 4bd6 1bbd 60d5 01bc c802 94bd f47e 31bd
00000060: 516f 9fbc 8d11 b5bd 19b5 a1bc f313 c9bd
00000070: e698 1ebd 71bc 09bc 3f1d 60bc 6a02 f8bd
00000080: 82d3 a5bd fb5a b2bb 86ba babc 4142 5cbd
00000090: 0d8a 12be 35bc b2bc 8162 55bd 286c d1bc
000000a0: ae3b 81bd 2c14 84bd 0f61 1dbd 3060 61bd
000000b0: a24f 5bbc f6d6 01bd 76cb 8abd da4c b9bb
000000c0: 528e 5cbd 4ab0 bcbd f2aa 0dbd 395f 6dbd
000000d0: 281a 1bbd 9e95 b3bc aa5e 00be 59d2 7cbd
000000e0: 7b23 b6bc 6fb7 0bbd 4881 3bbd 552c 24bd
000000f0: b72e 49bd 35b4 a8bd 4e04 03bc 4d12 efbc
-0.052003365 -0.051254816 -0.085550986 -0.045400355 -0.107168674 -0.07685863 -0.039067667 -0.0843247
-0.023727812 -0.029534904 -0.01788082 -0.026120337 -0.06254986 -0.043347318 -0.04547845 -0.013453344
-0.079678334 -0.04963543 -0.06016948 -0.043270145 -0.038046163 -0.007924408 -0.07227093 -0.043333963
-0.01946226 -0.08841238 -0.019739674 -0.09818258 -0.038720034 -0.008406744 -0.013678848 -0.121098354
-0.080969825 -0.0054429746 -0.02279402 -0.053774122 -0.14310475 -0.02181826 -0.052095894 -0.025564268
-0.06310211 -0.0644916 -0.03842264 -0.055023372 -0.013385685 -0.031699143 -0.06777088 -0.0056549134
-0.053846665 -0.09213312 -0.034586854 -0.05795214 -0.03786674 -0.021921929 -0.12536111 -0.06172404
-0.022233715 -0.034110483 -0.04577759 -0.04008134 -0.049116816 -0.08237497 -0.007996632 -0.029183531

sequential_1/conv2d_1/convolution/ReadVariableOp:0 f4 [32, 1, 3, 3]
00000000: 2176 1b3d d782 1fbe e232 923d 9a76 f2bd
00000010: 3a88 3ebe 6f14 d4bd 9d48 89bd 6950 ed3d
00000020: 955a 47be c45a 23be 21c8 46be 77d4 b0bc
00000030: a6a7 d3bd 562d 2abd 8869 9b3d 88aa b5bc
00000040: 1bd5 c3bc 4b86 f4bc 7534 6cbe 0636 81be
00000050: b1ba 94be d053 b8bc 9782 5ebe 4ff5 52be
00000060: baf4 433e 6806 823e 1a21 7b3c bf89 1bbe
00000070: 21d6 91be 8015 6dbe 8787 fe3d c96b 383d
00000080: de2b 37b9 2e2a 103d 67fb 093e 5ec2 283d
00000090: 10ae 2ebd fc98 403e 325f 9e3d 5106 98be
000000a0: 2484 9cbe b2ca aabd 25ba 21be 5fff 67be
000000b0: 4ce7 87be 1dc6 c03d e660 eb3d 4ae1 083d
000000c0: dac2 2abd d8ba efbb 8767 1a3e ce76 a3bd
000000d0: 09cc 0ebe bad8 0d3e 4285 63be 24fa 973c
000000e0: 48e2 573b 8ea9 4ebe 5a0e 1fbe 31a0 cc3c
000000f0: 5ced 3fbe 3109 f5bd 0305 3b3e 93b8 543e
00000100: 47e5 62be bfcd 49be c598 453e 0e42 8bbe
00000110: baeb 92be 578b 7bba 549a 3dbe 5c1a 19be
00000120: 822a a93d 161f d8bc 84a0 8abc bb76 a0bd
00000130: 9c37 1d3d 99f8 fd3d c12f 0abe 5bca 0ebe
00000140: 4a94 cf3d 7772 07be 46ed 80be eade d2bd
00000150: 2e15 333d 1cac 79be 22c4 50be 3028 533e
00000160: 091c f93d c18c d4bc b9a6 823d 81d9 763d
00000170: fdee 0b3e 0c0f dc3c 30e6 853d a715 cd3d
00000180: 5548 32be be74 b3be 6777 62be 9ac7 48be
00000190: 9534 18be 44aa 133c fecd 3bbe bc39 65be
000001a0: a3ce 413e fd7c 36be 8657 13bd 08b2 d2bc
000001b0: a2f4 8bbd 0a43 d83d acbd 95bc 6d7d 383e
000001c0: bcc2 87bd c5f9 0abe c1b8 f13d a898 02be
000001d0: 6b63 56be e0c5 03be e2ed 003c 52f7 35be
000001e0: 6f72 1bbe df24 2fbd 7a44 37be d8bd 34be
000001f0: 6475 0fbe 705c 033e 909b 50ba f5d5 153d
00000200: 776d 3dbe aa98 f5bd 41d7 3dbe e6c3 1a3e
00000210: 62bb 1ebe 8db1 f9bc 7a8a 41be c129 e03d
00000220: b5bf 173e 6420 12bd 0d27 a0bd f3c2 003d
00000230: 0436 d43d 71b9 b2bd 33ce 42be 4db1 cfbc
00000240: 015a 3abe 629f 7ebd e777 0e3e 095a 4cbe
00000250: 6dfd 82bd eff1 c6bb ae39 51be 237b a23c
00000260: f91f 6f3d bfb3 d83b 7c6a 033e 0c5f 6a3e
00000270: 8ae8 ffbd 9602 64bd f568 38be 47af b9be
00000280: ecf6 35be 72e7 77be 8d65 a33c 8a7b a1bd
00000290: aa93 d0bd 0d34 1bbe a619 3b3e 22f8 32bd
000002a0: c68d 31be 3d6b 5dbe 2f49 a53d a286 bc3d
000002b0: edd7 2c3e 9c00 5e3e 012f 70bd 2d01 7cbd
000002c0: 904d 8abd 7ea0 50be 6239 aabe 463f 2fbe
000002d0: 74f9 51bc 5a1c 673e db3a 00bd fe39 08be
000002e0: bab5 91bc 101d 873d cfd6 3b3e 835d bebc
000002f0: 878f 183e afdf 52be aa33 02be 7d34 253d
00000300: c075 f53d fa99 383e 79f2 dabd a443 92bd
00000310: d28d a6bc c81f ce3c 78f1 83bd 9349 2b3e
00000320: 39ef 88bd a4e6 1bbe 141a 0c3e 69e0 3e3d
00000330: 4f7e 26be 168d 92bb 8273 9e3d 6a22 29be
00000340: 9a14 2b3e 2172 45be 238e 4dbe ed18 59bd
00000350: 1390 acb9 60cb 733d d944 6bbb ca50 493c
00000360: 48f9 79be 6b26 1fbc 7a64 373d 4e4b 51be
00000370: 1e67 7dbe cc96 1a3e 6720 7abe 30af 3ebe
00000380: de38 4b3e 0b13 ef3c 3794 ef3d 2736 26bd
00000390: eaec cebb 0795 60bc 19f2 1c3d 5112 9d3d
000003a0: a247 ecbc 1610 13be 7a36 c93d c02b abbd
000003b0: fced 89be d6ea 8a3e 1550 4abe 9265 77be
000003c0: 6d1a f3bb 38c4 b8be e2ed a6be 8154 293e
000003d0: 6ef8 233e 4eee 153e 5b00 dfbd 4673 c6bd
000003e0: 0449 3fbe 57c8 0bbe 49a0 6cbe a6f4 18be
000003f0: 3823 acbd ed4d 74be 4874 49bd 746e a7bd
0.037954453 -0.15577255 0.071386114 -0.11839028 -0.18606654 -0.1035546 -0.06703303 0.11587603
-0.19468148 -0.15952593 -0.1941228 -0.021585686 -0.10334711 -0.041547142 0.07588488 -0.022176042
-0.023905328 -0.029849192 -0.23066886 -0.2523653 -0.29048684 -0.022500902 -0.21729504 -0.2060139
0.19136325 0.25395513 0.015327716 -0.15189265 -0.2848368 -0.23152733 0.124281935 0.045024667
-0.00017468582 0.035196476 0.13474809 0.041200988 -0.042646468 0.18808359 0.07733001 -0.2969232
-0.30569565 -0.08339442 -0.15793665 -0.2265601 -0.26543653 0.09412787 0.11493091 0.033417977
-0.04168973 -0.0073159747 0.15078555 -0.079816446 -0.1394502 0.13852206 -0.22218803 0.018551894
0.003294127 -0.20181867 -0.15532818 0.024978729 -0.18742889 -0.11964644 0.1826363 0.20773534
-0.22157775 -0.19707392 0.19296558 -0.27198833 -0.2869547 -0.00095956534 -0.18515903 -0.14951462
0.08260061 -0.02638201 -0.016922243 -0.07835146 0.03838311 0.12400932 -0.13494779 -0.1394438
0.10135706 -0.13227259 -0.25181025 -0.10296424 0.04372137 -0.24382061 -0.20387319 0.20620799
0.121635504 -0.025946023 0.06379456 0.06026602 0.13665386 0.026862644 0.065380454 0.100138955
-0.17410405 -0.35050005 -0.22115861 -0.19607392 -0.14863808 0.009012762 -0.18340299 -0.22385305
0.18926482 -0.17821117 -0.03597214 -0.025719658 -0.068337694 0.10559662 -0.01827892 0.18016596
-0.066289395 -0.13571842 0.11802817 -0.12753546 -0.20936362 -0.12868452 0.007869216 -0.17770126
-0.15180372 -0.042759772 -0.17897215 -0.17650545 -0.14009625 0.12828231 -0.0007957751 0.036581
-0.18498789 -0.11992009 -0.18539144 0.15113792 -0.15501168 -0.03048017 -0.18900481 0.10945464
0.14819224 -0.03567542 -0.07819948 0.031435918 0.10361865 -0.087267764 -0.19023971 -0.025353098
-0.18198396 -0.062163718 0.13912927 -0.1995622 -0.063959934 -0.006071321 -0.2043216 0.019834107
0.0583801 0.0066132243 0.1283359 0.2288782 -0.12495525 -0.05566653 -0.18008788 -0.36266539
-0.17769974 -0.24209383 0.019945884 -0.07884891 -0.10184415 -0.15156575 0.18271503 -0.04369367
-0.17339239 -0.2162294 0.08070599 0.09205367 0.16879244 0.2167992 -0.058638576 -0.06152456
-0.06753075 -0.20373723 -0.33246905 -0.1711398 -0.012815822 0.22569409 -0.03130613 -0.13303372
-0.01778685 0.0659734 0.18343662 -0.02323795 0.14898501 -0.20593141 -0.12715021 0.04033326
0.1198535 0.18027487 -0.10690779 -0.07141808 -0.020331297 0.025161639 -0.06442541 0.16727285
-0.06686253 -0.15224701 0.13681823 0.046600733 -0.1625912 -0.004472385 0.07736875 -0.16517034
0.16707078 -0.19281818 -0.20073752 -0.053002287 -0.0003291374 0.059520125 -0.003589919 0.012287328
-0.244115 -0.009713749 0.044773556 -0.20438883 -0.24746367 0.15096587 -0.24426423 -0.18621516
0.19845912 0.029183885 0.116981916 -0.040578987 -0.0063148635 -0.013707406 0.03831682 0.07669509
-0.028842751 -0.14361605 0.09824844 -0.08357954 -0.2693938 0.2713229 -0.19757111 -0.2415984
-0.0074189217 -0.36087203 -0.32603365 0.16536142 0.16012737 0.14641687 -0.1088874 -0.096899554
-0.18680197 -0.13650642 -0.23108019 -0.14937076 -0.08405155 -0.23857851 -0.04918316 -0.08175364

sequential_1/conv2d_1/Squeeze:0 f4 [32]
00000000: a46f 81bd a356 9fbd 4856 26bd b909 6cbd
00000010: b4dd c5bc aec2 1dbe 408e 43bd 7172 32bc
00000020: 197a 00bd 2004 1cbd 0633 9dbd 90ab a1bc
00000030: fc77 ddbc 6310 01bd edb7 82bd 1bb0 bebd
00000040: 9b9a 8a3c 1c4a 9fbc fa85 aebd 73c3 28bd
00000050: e99c e6bc 5ba8 a7bd fff0 ebbd 2a02 01bd
00000060: f555 46bc edf9 8bbd 3f33 97bc af4e 0abd
00000070: c49b 1dbd 2662 41bd c058 c0bb 206f a1bd
-0.06320122 -0.077801965 -0.040609628 -0.05762646 -0.024153568 -0.15406296 -0.047743082 -0.010891543
-0.03136644 -0.03808987 -0.076757476 -0.019735128 -0.027034752 -0.03150977 -0.06382737 -0.09310933
0.016919425 -0.019444518 -0.08521648 -0.04120202 -0.028150992 -0.08186408 -0.11520576 -0.031496204
-0.012105455 -0.06834779 -0.018457053 -0.033766445 -0.038478628 -0.047212742 -0.005869955 -0.078825235
